game-tree+NN-based-AI/model6.pth (torch, 3243 bytes, 5 tensors)

1.weight f4 [6, 36]
00000000: 9969 2a3f b15d f63e e53b fa3e 2497 c63e
00000010: 3e11 003f f3ac 043f 929a 2f3f 9185 f53e
00000020: c6bd aa3e 4ed6 073f a3c0 273f 5ce7 013f
00000030: cc1a c43e 133b d63e af70 f03e 47a9 1a3f
00000040: 6590 033f 733b 4c3f b7ac d03e 25fa ee3e
00000050: 3c89 013f 5381 193f 8cad 273f 8c54 0d3f
00000060: 8d4a e43e 161a 033f 4ea4 043f b9b2 ee3e
00000070: 9c49 323f 3f08 193f 1795 fd3e 0d69 163f
00000080: db09 fc3e 46e6 203f 2700 fd3e 66a0 323f
00000090: f409 013f 0d7c 073f 07e8 bf3e 88ea 933e
000000a0: ebbc 023f cfd5 c93e 8a65 953e 6907 cb3e
000000b0: 684d d43e 0da3 e23e 65f0 d43e 0af6 a33e
000000c0: 1e4b 103f 92e9 b43e 4f2d dc3e 35f0 f93e
000000d0: 185d c83e 931c 3d3f 2ffa df3e 581d 083f
000000e0: 7625 ec3e 06d7 003f 4091 e63e 162b 283f
000000f0: a053 a83e ceda 0c3f fb87 9e3e 75e3 8a3e
00000100: 777d 1b3f d733 003f a4a1 253f 23e3 c33e
00000110: c270 c93e d6df 003f b72c e33e 8dfa 2a3f
00000120: 1efd 263f 38fd e73e 1dc9 df3e 7635 5a3e
00000130: d7a1 973e 3b74 d33e e407 0e3f 8688 ae3e
00000140: 3011 e73e 23a8 be3e 075f 113f 2844 193f
00000150: d2cd a43e 495a a93e 16d9 083f f7f5 d43e
00000160: b9f0 cd3e 11bf 2b3f fb6c 043f 8156 d03e
00000170: 13b4 d43e 2eec 3c3f d275 f73e e367 1e3f
00000180: 2c7c bd3e 0ec2 093f 4e3e 0e3f 7bd5 043f
00000190: 3bc0 1d3f a85f 1a3f 6328 033f 0b85 023f
000001a0: c066 013f 37de f43e e01b 2f3f ec70 c53e
000001b0: 33d6 0dbf 0348 c0be f351 b9be 4e9d c9be
000001c0: 21d1 74be 88e6 c8be 41c5 10bf f9ce 9abe
000001d0: b721 6dbe 0b0f 98be 3b5d b1be 533a 25bf
000001e0: 5974 b7be 83f0 cbbe 9bf9 ecbe b17e 08bf
000001f0: f301 c3be e6f8 fbbe 46a4 b3be ff91 abbe
00000200: 8f33 ebbe 01c9 e3be 1965 f2be 3091 10bf
00000210: 4ab5 0abf fa78 e5be bde5 b1be abb7 97be
00000220: c599 45bf 2a00 0ebf 3c1c dcbe 7a27 1bbf
00000230: 673e 15bf 5986 07bf 0461 1abf b70f dbbe
00000240: 7ed0 c73e 17ae 093f 3d23 e13e 1000 593e
00000250: fdbe d83e bbe9 073f b187 c13e 49e2 f93e
00000260: 5c0a 863e edcd f23e 6a6b b43e c619 123f
00000270: e3c7 083f 55b3 d03e 01c6 4c3e 1c4e bc3e
00000280: 3ac0 da3e d956 da3e 2e34 0c3f f5ef ae3e
00000290: 008a f53e f54e 273f c9b2 f93e 33c5 233f
000002a0: 4260 013f 5197 b93e e7c0 dd3e 3f97 d93e
000002b0: ca5a 2a3f ea98 133f 92b7 fa3e dce2 e23e
000002c0: 040a 023f d28c ea3e af48 123f 2fbc 113f
000002d0: ab3c 06bf 3a06 21bf 0832 04bf 49de f3be
000002e0: 04de d5be 30c7 bebe fa74 fcbe 0868 9fbe
000002f0: 7695 a5be 658b 01bf 49a7 bebe 80af 2fbf
00000300: 0f8d eebe df56 aabe e990 d0be fcbd 0dbf
00000310: 465f f2be 4314 0fbf 43f7 b9be 13ac cebe
00000320: 57ab 21bf e1b6 f8be 7c3a 44bf 32bf 25bf
00000330: 97cd ffbe d158 06bf af6c 13bf 46b6 f3be
00000340: 9988 4dbf a085 40bf 51cf cdbe d2fa d8be
00000350: d238 c9be 5e30 bebe 61f1 0dbf 25ae 0abf
0.6656738 0.48118356 0.4887382 0.38787186 0.5002631 0.518264 0.6859523 0.47953466
0.3334791 0.5306138 0.65528315 0.5074365 0.38301694 0.41841945 0.4696097 0.60414547
0.51392204 0.7977821 0.4075677 0.4667522 0.5060003 0.5996296 0.65499187 0.55207133
0.44588128 0.5121168 0.5181321 0.4662073 0.6964357 0.5977821 0.4952781 0.58754045
0.4922627 0.6285137 0.4941418 0.69776 0.5040581 0.5292366 0.3748171 0.2888987
0.51069516 0.39420936 0.2917903 0.3965409 0.41465306 0.44265023 0.41589656 0.3202365
0.5636462 0.3533445 0.43003318 0.48816076 0.39133525 0.73871726 0.43745562 0.53169775
0.4612233 0.503281 0.45032692 0.65690744 0.328763 0.5502137 0.3096312 0.2712666
0.6073832 0.500791 0.6469977 0.3825923 0.3934384 0.50341547 0.44370052 0.6678856
0.65229976 0.45310378 0.43708125 0.21309456 0.29615662 0.41299614 0.5548079 0.34088534
0.451303 0.37237653 0.56785625 0.59869623 0.32188278 0.33076695 0.53456247 0.41593906
0.4022272 0.6708842 0.5172879 0.40690997 0.41543636 0.7379788 0.48332077 0.6187727
0.37008798 0.5381173 0.5556382 0.51888245 0.61621445 0.6030221 0.512335 0.5098426
0.5054741 0.47825786 0.6840191 0.38562715 -0.5540497 -0.3755494 -0.36195335 -0.39377826
-0.23907901 -0.3923838 -0.56550986 -0.30236033 -0.23157392 -0.29698977 -0.34641442 -0.6454212
-0.35830954 -0.39831933 -0.46284184 -0.53318316 -0.38087425 -0.49213332 -0.35086268 -0.33509824
-0.45937774 -0.4448929 -0.47342756 -0.5647154 -0.54182875 -0.4481886 -0.3474559 -0.29632315
-0.7718776 -0.55469 -0.4299029 -0.6060711 -0.58298343 -0.52939373 -0.60304284 -0.42785427
0.39026254 0.53781265 0.43972197 0.2119143 0.42333212 0.5309102 0.37798837 0.48805454
0.2617978 0.47422734 0.352382 0.5707058 0.5343 0.4076182 0.19997407 0.36778343
0.42724782 0.42644385 0.5476712 0.34167448 0.47956848 0.65354854 0.48769215 0.6397278
0.505375 0.36248258 0.43311235 0.42498204 0.66544783 0.57655203 0.48968178 0.44313705
0.5079653 0.45810562 0.57142156 0.5692777 -0.5243632 -0.62900126 -0.5163884 -0.47630528
-0.41770947 -0.37261343 -0.49307996 -0.31134057 -0.32340592 -0.50603324 -0.37237003 -0.68627167
-0.46591994 -0.33269402 -0.40735558 -0.5536802 -0.47338313 -0.5589029 -0.36321458 -0.40365657
-0.6315207 -0.48577026 -0.7665174 -0.64744866 -0.4996154 -0.52479273 -0.57587713 -0.476
-0.80286556 -0.75203896 -0.40197232 -0.4237886 -0.39301163 -0.37146276 -0.5544644 -0.54171973

1.bias f4 [6]
00000000: 3ba6 093f 52b1 233f 1716 0c3f 421c 01bf
00000010: 69fe 2c3f a38a 1cbf
0.5376927 0.63942444 0.54721206 -0.50433743 0.675757 -0.6114904

2.weight f4 [3, 6]
00000000: e9d4 a0be 0b10 65bf 242c ddbe abca 6f3f
00000010: 2bff 60bf 2229 df3e f00c 1f3f 5632 bc3e
00000020: 2f47 2f3f 72e1 e8be 19ac 563f 101c aebe
00000030: 2df0 323f 83d7 373f c5f8 4c3f 7f22 13bf
00000040: 718e 193f 6cc8 68bf
-0.31412438 -0.89477605 -0.4319774 0.9366862 -0.87889355 0.4358607 0.62129116 0.36757153
0.6846799 -0.454845 0.8385635 -0.34005785 0.6989773 0.7181322 0.8006709 -0.5747451
0.59982973 -0.9093082

2.bias f4 [3]
00000000: 31cd 5ebe be87 1b3f 37ee 083f
-0.21757962 0.60754 0.53488487

3.weight f4 [1, 3]
00000000: d3c9 89bf 83a6 653f cfe3 833f
-1.0764717 0.897072 1.0303897
