game-tree+NN-based-AI/model4.pth (torch, 2603 bytes, 5 tensors)

1.weight f4 [4, 16]
00000000: 0309 30bf aa49 e8be a5d1 efbe c969 bdbe
00000010: b6b9 04bf ed6b 39bf 8fab eebe 26b6 02bf
00000020: ed4a ebbe a692 acbe 9884 31bf 186c 19bf
00000030: 9c59 e3be 64b7 e4be ba8b 46bf 32fa 26bf
00000040: 5b5d 40bf 3708 38bf 923d e1be 9dbc c4be
00000050: 514b 27bf 3fe5 4bbf cf12 c4be e01c adbe
00000060: 977c 16bf 8a61 2cbf 79fe 1abf 7970 e5be
00000070: 4661 51bf 41be 09bf 2b23 19bf b17a c8be
00000080: c3ba 463f eacd 073f 38d5 d63e 33ca f53e
00000090: d045 663f be88 183f d08f 463f 7685 e43e
000000a0: b5d7 533f e634 533f 9700 f83e 792c 093f
000000b0: 7dea e03e d07f 5b3f f319 0b3f 1921 093f
000000c0: f9b3 3c3f 602f 303f 5acb 4c3f 45f6 463f
000000d0: c006 443f f689 b43e bb1e 293f 3e71 ae3e
000000e0: 2c41 e23e ecc7 fa3e 1571 c63e 7e62 e33e
000000f0: 1050 f83e c741 4c3f 3ec9 4b3f fbcf c03e
-0.6876375 -0.453687 -0.46839634 -0.3699477 -0.5184587 -0.72430307 -0.46615264 -0.51059186
-0.459556 -0.33705634 -0.69342947 -0.5993056 -0.44404304 -0.44671166 -0.77556956 -0.6522552
-0.7514245 -0.71887535 -0.43992287 -0.3842515 -0.653493 -0.79646677 -0.382956 -0.33811092
-0.5878386 -0.6733633 -0.60544544 -0.44812372 -0.8178905 -0.5380593 -0.5981929 -0.39156106
0.77628726 0.53048575 0.41959548 0.48005828 0.89950275 0.5958365 0.7756319 0.44633073
0.8275102 0.8250259 0.4843795 0.53583485 0.439289 0.857419 0.5433647 0.5356613
0.73712116 0.6882229 0.7999779 0.7771953 0.765728 0.35261506 0.66062516 0.34070772
0.44190347 0.48980653 0.3875815 0.4441108 0.48498583 0.7978787 0.79603946 0.37658677

1.bias f4 [4]
00000000: f4f4 cdbe ad77 35bf 5eaa 513f f9c9 3a3f
-0.40225947 -0.70885736 0.81900585 0.72964436

2.weight f4 [2, 4]
00000000: cc3a 60bf cc40 7fbf c4d2 103f 6261 8b3f
00000010: 500e f7be c8d3 30bf 7bf0 8a3f 3413 193f
-0.87589717 -0.9970825 0.565716 1.0889094 -0.48253107 -0.6907315 1.0854639 0.59794927

2.bias f4 [2]
00000000: cd12 333f 060b ae3e
0.6995056 0.33992785

3.weight f4 [1, 2]
00000000: 4758 9c3f 4a35 853f
1.221444 1.0406888
