game-tree+NN-based-AI/model4.pth (torch, 1859 bytes, 2 tensors)

2.weight f4 [10, 16]
0	0x407f5669	3.989649
1	0x4082247b	4.066953
2	0x4087078b	4.219671
3	0x40870b64	4.2201405
4	0x4081fb3e	4.061919
5	0x408ba9a7	4.3644595
6	0x408ea5c6	4.457736
7	0x4085de5b	4.183393
8	0x40802984	4.005068
9	0x40867050	4.20121
10	0x408e4412	4.4458094
11	0x4088666e	4.2625036
12	0x4088ab4d	4.2709107
13	0x40898a80	4.2981567
14	0x4087da76	4.2454176
15	0x4080c602	4.024171
16	0x4085500e	4.1660223
17	0x408de9cd	4.43479
18	0x408c0177	4.375179
19	0x4082bff3	4.0859313
20	0x408fee19	4.4978147
21	0x408ad0a6	4.33797
22	0x40888189	4.2658124
23	0x408dca1b	4.430921
24	0x40884040	4.257843
25	0x408e7877	4.452205
26	0x408d708d	4.419989
27	0x40873845	4.225619
28	0x408306f6	4.0945997
29	0x408a1dbc	4.3161297
30	0x4082dee8	4.08971
31	0x40894bbd	4.2904954
32	0x40887d71	4.2653127
33	0x4087e311	4.246468
34	0x4087ef63	4.247972
35	0x408b528f	4.353828
36	0x40814db0	4.0407333
37	0x4086ac5c	4.20854
38	0x408ee8a8	4.4659004
39	0x408b5281	4.3538213
40	0x407da366	3.963098
41	0x40899ca4	4.300371
42	0x4080a42e	4.0200415
43	0x4089861e	4.2976217
44	0x40823bec	4.0698147
45	0x4086aee9	4.2088513
46	0x4084f26a	4.1545916
47	0x4086f313	4.217172
48	0x407d4fc0	3.9579926
49	0x4083ca16	4.1184187
50	0x40838a31	4.110619
51	0x408bef1c	4.372938
52	0x408508ac	4.1573086
53	0x4080cd0a	4.025029
54	0x408e7000	4.451172
55	0x4082e5c8	4.0905495
56	0x4087cf1c	4.244032
57	0x40826f8b	4.076116
58	0x408351e8	4.1037483
59	0x408c5760	4.385666
60	0x408dde20	4.433365
61	0x408423e6	4.129382
62	0x40864249	4.1955914
63	0x408092f8	4.0179405
64	0x4086d794	4.2138157
65	0x4083b391	4.1156697
66	0x408a37b9	4.319302
67	0x4084b5cc	4.147192
68	0x408886e8	4.266468
69	0x4081293e	4.0362844
70	0x408aab86	4.333438
71	0x408bdba9	4.370564
72	0x408adcc6	4.33945
73	0x408178f5	4.0460153
74	0x40854ee9	4.1658826
75	0x4089a819	4.3017697
76	0x408e3adc	4.444685
77	0x40869bb4	4.2065067
78	0x40847aeb	4.1400046
79	0x40877dbd	4.234099
80	0x408b41bf	4.3517756
81	0x4085cce0	4.181259
82	0x408bcadb	4.3685126
83	0x408df231	4.4358144
84	0x408aa35c	4.3324413
85	0x408de7f1	4.434563
86	0x408dce57	4.431438
87	0x408da893	4.426828
88	0x4085fe44	4.1872883
89	0x408589b8	4.1730614
90	0x408d96e5	4.4246697
91	0x4083e623	4.121843
92	0x40891160	4.283371
93	0x40827d9b	4.0778327
94	0x408b7597	4.358104
95	0x408118e4	4.0342884
96	0x408410fb	4.127073
97	0x408c8aa7	4.3919253
98	0x40894935	4.2901864
99	0x408a9662	4.3308573
100	0x4085dfe1	4.183579
101	0x408a0a00	4.3137207
102	0x408460a7	4.1367984
103	0x40849204	4.142824
104	0x40846f08	4.1385536
105	0x408c2ef7	4.380733
106	0x4087938e	4.236762
107	0x40847621	4.13942
108	0x408c0c22	4.376481
109	0x40843893	4.131906
110	0x40826d19	4.0758176
111	0x4087f463	4.2485824
112	0x40802e40	4.0056458
113	0x4085c9eb	4.180898
114	0x40859d07	4.1754184
115	0x408d7b07	4.421268
116	0x4085319f	4.1623073
117	0x408465c8	4.1374245
118	0x4086d750	4.2137833
119	0x4084c34c	4.14884
120	0x4087f5a2	4.2487345
121	0x408e0e8c	4.4392757
122	0x40820a1e	4.063735
123	0x4089a04a	4.3008165
124	0x408256dd	4.0731034
125	0x408b5839	4.3545194
126	0x4083ba35	4.1164804
127	0x4088883d	4.2666306
128	0x407e0efc	3.9696646
129	0x408f2498	4.473217
130	0x4081ddf5	4.0583444
131	0x408a4ee7	4.3221316
132	0x40882a59	4.2551694
133	0x40811fde	4.03514
134	0x408ba540	4.363922
135	0x408f9f73	4.488214
136	0x407b296a	3.9244027
137	0x4086bd6b	4.2106223
138	0x408a2929	4.3175244
139	0x4083df9c	4.121046
140	0x4082631d	4.074599
141	0x4081c5b4	4.0553837
142	0x408df24e	4.435828
143	0x408f5278	4.478817
144	0x40811165	4.0333734
145	0x408c9fe4	4.394518
146	0x40884473	4.2583556
147	0x408b44bd	4.352141
148	0x40854332	4.1644526
149	0x408c6ce7	4.3882937
150	0x408c10bc	4.377043
151	0x4084f957	4.155437
152	0x408600ef	4.187614
153	0x408c1a59	4.3782163
154	0x408619df	4.190658
155	0x408dc2ab	4.430013
156	0x408ec642	4.4617014
157	0x408495e6	4.143298
158	0x4082d20a	4.0881395
159	0x40857398	4.1703606

2.bias f4 [10]
0	0x4083e87d	4.12213
1	0x408c818e	4.390815
2	0x4087bd30	4.241844
3	0x40820584	4.0631733
4	0x408ad7f8	4.3388634
5	0x4088716c	4.2638454
6	0x4085b1da	4.1779604
7	0x408e678b	4.4501395
8	0x4081f1fd	4.0607896
9	0x408bba9d	4.36653
