game-tree+NN-based-AI/model10.pth (torch, 6507 bytes, 5 tensors)

1.weight f4 [10, 100]
0	0x3f05d9ec	0.5228565
1	0x3f056f2b	0.52122754
2	0x3f14c949	0.58119637
3	0x3ebf4788	0.37359262
4	0x3e984bd7	0.2974536
5	0x3ec1ff53	0.3789011
6	0x3ee0bfe0	0.4389639
7	0x3f41e845	0.7574504
8	0x3f6b22bf	0.91849893
9	0x3f3ba104	0.73292565
10	0x3edc8f2c	0.4307798
11	0x3ecfcb89	0.40584973
12	0x3dced3ec	0.10099015
13	0x3e23156f	0.15926145
14	0x3db1325f	0.08652186
15	0x3f292180	0.6606674
16	0x3f07a7d5	0.52990466
17	0x3f7b1836	0.9808382
18	0x3f4688f6	0.77552736
19	0x3f4d3334	0.80156255
20	0x3eb7c19f	0.3588991
21	0x3e6cf662	0.23140863
22	0x3e091ee3	0.13390689
23	0x3f17e948	0.59340334
24	0x3f7acb89	0.9796682
25	0x3eeb89f3	0.46003684
26	0x3f7c4f81	0.98558813
27	0x3f5a89fc	0.853668
28	0x3f861ea4	1.0478101
29	0x3f599b28	0.85002375
30	0x3ea27e7e	0.3173713
31	0x3ed4cc1f	0.41561982
32	0x3f0f78d0	0.5604372
33	0x3f5acac3	0.8546564
34	0x3f82f1fc	1.0230098
35	0x3f8b73d4	1.0894723
36	0x3f7112be	0.94169223
37	0x3f8cfceb	1.1014684
38	0x3f5ba4cb	0.8579833
39	0x3f155462	0.5833188
40	0x3ec27835	0.37982336
41	0x3f390192	0.7226802
42	0x3f6dd847	0.9290814
43	0x3f7fa5d8	0.9986243
44	0x3f2d7216	0.67752206
45	0x3f8a896c	1.0823188
46	0x3f48409c	0.78223586
47	0x3f176901	0.591446
48	0x3ef2ea10	0.474442
49	0x3ecbcacc	0.3980316
50	0x3e6b0cad	0.22954054
51	0x3edb4bb8	0.42831206
52	0x3f4f2023	0.8090841
53	0x3f5787e5	0.84191734
54	0x3ed59082	0.41711813
55	0x3f830fa2	1.0239146
56	0x3f6b2f76	0.91869295
57	0x3f60dd9d	0.87838155
58	0x3f5cad48	0.86201906
59	0x3f48b861	0.7840634
60	0x3ec86016	0.39135808
61	0x3f0407a4	0.5157416
62	0x3f3cc1b4	0.7373307
63	0x3f42a96c	0.7603977
64	0x3f82472a	1.0177968
65	0x3f6a3f5d	0.91502935
66	0x3f2cbb19	0.6747299
67	0x3f5feda8	0.8747201
68	0x3f2ab03e	0.66675174
69	0x3f658229	0.89651734
70	0x3eb98405	0.36233535
71	0x3eac334b	0.33632883
72	0x3f90e142	1.1318743
73	0x3f5b991e	0.85780513
74	0x3f19bdf3	0.60055465
75	0x3f6f17ae	0.9339551
76	0x3f2ef5de	0.68343914
77	0x3f5aa06d	0.8540104
78	0x3f2dea38	0.67935514
79	0x3f31f36b	0.6951205
80	0x3eedae5e	0.46422094
81	0x3ec37195	0.38172594
82	0x3e21496d	0.15750666
83	0x3eb72165	0.35767666
84	0x3f45c1c0	0.77248764
85	0x3e8a3273	0.26991615
86	0x3f48f87e	0.7850417
87	0x3e82699f	0.25471207
88	0x3f369c3f	0.7133216
89	0x3f6a8e4d	0.91623384
90	0x3f5b66b4	0.8570359
91	0x3f442980	0.76625824
92	0x3f20a2ec	0.627486
93	0x3ebbe371	0.36696962
94	0x3eec16f3	0.4611126
95	0x3e7a79ab	0.24460475
96	0x3f4861dd	0.7827433
97	0x3f251022	0.6447774
98	0x3f61469f	0.87998384
99	0x3f265ea8	0.64988184
100	0xbf0fee19	-0.56222683
101	0xbf0826d2	-0.53184235
102	0xbed32440	-0.41238594
103	0xbee6467b	-0.44975647
104	0xbe8f5a74	-0.27998698
105	0xbe915963	-0.2838851
106	0xbef54226	-0.4790203
107	0xbf34ba03	-0.7059633
108	0xbf4f642c	-0.81012225
109	0xbf314e51	-0.69260126
110	0xbea57f68	-0.32323766
111	0xbec65d1a	-0.38742906
112	0xbe847911	-0.25873616
113	0xbe5a5e8c	-0.2132513
114	0xbdaf5791	-0.08561624
115	0xbf50c0bc	-0.8154409
116	0xbefe3904	-0.49652874
117	0xbf801c9e	-1.0008733
118	0xbf4202c2	-0.7578546
119	0xbf3e533f	-0.74345773
120	0xbec4dffe	-0.38452142
121	0xbe90b81b	-0.2826546
122	0xbdbaa632	-0.091137305
123	0xbf0d6068	-0.5522523
124	0xbf75950c	-0.9593055
125	0xbee1921e	-0.4405679
126	0xbf842e68	-1.0326662
127	0xbf640966	-0.8907684
128	0xbf5e1c34	-0.86761785
129	0xbf36962b	-0.7132289
130	0xbeb0b34c	-0.34511793
131	0xbf04614d	-0.5171097
132	0xbf1e8957	-0.61928314
133	0xbf6ce365	-0.92534477
134	0xbf810f79	-1.0082847
135	0xbf83673c	-1.026588
136	0xbf816c3a	-1.0111153
137	0xbf826673	-1.0187515
138	0xbf58450d	-0.84480363
139	0xbf2255b6	-0.63412035
140	0xbeb4f3ea	-0.35342342
141	0xbf421542	-0.75813687
142	0xbf81048e	-1.0079515
143	0xbf750ee9	-0.95725876
144	0xbf281a15	-0.656648
145	0xbf8a2d74	-1.0795121
146	0xbf51b5b7	-0.819179
147	0xbf2c33c5	-0.67266494
148	0xbef8248d	-0.48465386
149	0xbf0d575b	-0.5521142
150	0xbe938da1	-0.28818992
151	0xbef7f998	-0.48432612
152	0xbf46bf80	-0.77635956
153	0xbf6dd33e	-0.92900455
154	0xbef926ec	-0.48662508
155	0xbf862ac6	-1.0481803
156	0xbf72bdba	-0.9482075
157	0xbf5750a5	-0.8410743
158	0xbf47cfdd	-0.7805155
159	0xbf3b7335	-0.73222667
160	0xbef5368d	-0.4789318
161	0xbef17938	-0.47162795
162	0xbf44d579	-0.76888233
163	0xbf5710d8	-0.84010077
164	0xbf64bee2	-0.89353764
165	0xbf60f99d	-0.8788088
166	0xbf3496fc	-0.70542884
167	0xbf661fa0	-0.89892006
168	0xbf2e33c8	-0.6804776
169	0xbf4a4501	-0.7901154
170	0xbf08fead	-0.53513604
171	0xbeb77131	-0.35828546
172	0xbf86e46e	-1.0538461
173	0xbf449801	-0.7679444
174	0xbf43b3b9	-0.7644611
175	0xbf4f5b33	-0.80998534
176	0xbf4d8a2e	-0.8028897
177	0xbf7fc3b0	-0.9990797
178	0xbf46b603	-0.7762148
179	0xbf59322b	-0.84842175
180	0xbf21e9a3	-0.63247126
181	0xbea5b724	-0.32366288
182	0xbe9855a8	-0.2975285
183	0xbe549cd5	-0.20762952
184	0xbf594128	-0.84865046
185	0xbe8e2211	-0.27760366
186	0xbf561724	-0.8362906
187	0xbe9fa2fb	-0.31179032
188	0xbf316d5c	-0.69307494
189	0xbf677816	-0.9041761
190	0xbf45a738	-0.7720828
191	0xbf42f239	-0.7615085
192	0xbf0c32ab	-0.54764813
193	0xbe8d7024	-0.2762462
194	0xbedcb2f7	-0.4310529
195	0xbece8baf	-0.40340945
196	0xbf4dc744	-0.8038218
197	0xbf33f448	-0.7029462
198	0xbf6e4437	-0.9307284
199	0xbf32a8d6	-0.69788873
200	0x3f0b5879	0.54431874
201	0x3f0ddc98	0.55414724
202	0x3f1185c4	0.56844735
203	0x3ee4c4cc	0.44681394
204	0x3e5b6829	0.21426453
205	0x3ed729ab	0.42023978
206	0x3ed9eca2	0.4256335
207	0x3f46b40f	0.776185
208	0x3f3fd8dc	0.74940276
209	0x3f0d4cb0	0.5519514
210	0x3ec27fc1	0.37988093
211	0x3ec50e64	0.38487542
212	0x3e809b4c	0.25118482
213	0x3dc0a733	0.09406891
214	0x3e03cfa5	0.12872179
215	0x3f333182	0.6999742
216	0x3f011d12	0.5043498
217	0x3f8382fb	1.0274347
218	0x3f3304df	0.6992931
219	0x3f4b0522	0.7930471
220	0x3ef73d9b	0.4828919
221	0x3e58ef67	0.21185075
222	0x3d618960	0.05506265
223	0x3f151e15	0.58249027
224	0x3f6363e0	0.8882427
225	0x3f0f6cb1	0.56025225
226	0x3f7820c5	0.96925
227	0x3f7029bf	0.938137
228	0x3f84381b	1.0329622
229	0x3f540756	0.82823694
230	0x3ec02a67	0.3753235
231	0x3ee15bff	0.440155
232	0x3f28a4b1	0.658763
233	0x3f6a4e2c	0.9152553
234	0x3f819990	1.0124989
235	0x3f7ec721	0.99522597
236	0x3f72b4cf	0.9480714
237	0x3f79cf93	0.9758236
238	0x3f4f707c	0.8103101
239	0x3f253d33	0.6454651
240	0x3e96aa5c	0.2942685
241	0x3f29baf7	0.6630091
242	0x3f536da3	0.8258917
243	0x3f89d2dc	1.0767474
244	0x3f0ad4ad	0.5423077
245	0x3f7ecb95	0.9952939
246	0x3f354e89	0.7082296
247	0x3f323abc	0.6962087
248	0x3f1ba1cf	0.60793775
249	0x3f114ba5	0.5675605
250	0x3df27658	0.118389785
251	0x3edd7bcf	0.4325852
252	0x3f62b991	0.885644
253	0x3f727250	0.9470568
254	0x3ed61d0a	0.4181903
255	0x3f6c628e	0.9233788

1.bias f4 [10]
0	0x3f5c53fa	0.8606564
1	0xbf5380bd	-0.82618314
2	0x3f612a47	0.87955135
3	0x3f80d551	1.0065099
4	0xbf5d7504	-0.86506677
5	0x3f4db4ff	0.80354303
6	0xbf565295	-0.8371976
7	0x3f6eef14	0.93333554
8	0x3f5a4644	0.85263467
9	0xbf6720ca	-0.9028441

2.weight f4 [5, 10]
0	0x3e902ee6	0.2816078
1	0xbe3a864b	-0.18215291
2	0x3f1811a3	0.5940191
3	0x3f0aabdf	0.54168504
4	0xbe834439	-0.25637987
5	0x3f0c5af3	0.5482628
6	0xbee660f2	-0.44995838
7	0x3ed87cc7	0.42282698
8	0x3ee2bf7f	0.44286725
9	0xbedb24c3	-0.42801484
10	0xbf094daf	-0.5363416
11	0x3f1ed194	0.6203854
12	0xbf1a16c3	-0.6019098
13	0xbf0e92a0	-0.5569248
14	0x3f0a3997	0.53994125
15	0xbef90d34	-0.48642886
16	0x3f1c6bd4	0.6110203
17	0xbf1defe6	-0.6169418
18	0xbf4568eb	-0.7711322
19	0x3f100dee	0.56271255
20	0x3ed98182	0.4248162
21	0xbeed0235	-0.46290746
22	0x3e2cbe67	0.16869508
23	0x3ea338b3	0.31879196
24	0xbe84863f	-0.25883672
25	0x3f05a900	0.52211
26	0xbeeebdd1	-0.46629193
27	0x3f01af7c	0.5065839
28	0x3f094734	0.5362427
29	0xbedf5827	-0.43621942
30	0x3f5484b2	0.83014977
31	0xbf28f2b1	-0.6599532
32	0x3eac3cf8	0.33640265
33	0x3f01f61c	0.5076616
34	0xbee3bf27	-0.44481775
35	0x3f299057	0.6623587
36	0xbefc7abd	-0.49312392
37	0x3e807356	0.25087994
38	0x3e8628ec	0.26203096
39	0xbe6d30a1	-0.23163082
40	0x3f031a1e	0.51211727
41	0xbf1756b4	-0.59116673
42	0x3ef993dd	0.48745623
43	0x3ea43db7	0.32078335
44	0xbf188692	-0.5958034
45	0x3e8a3e89	0.27000836
46	0xbec55cef	-0.38547465
47	0x3f092825	0.5357688
48	0x3e6d60c1	0.2318144
49	0xbf1fd86e	-0.6243962

2.bias f4 [5]
0	0x3f34c8a7	0.7061867
1	0xbe802131	-0.25025323
2	0x3f1532db	0.58280724
3	0x3f48446e	0.78229415
4	0x3f1b3276	0.6062387

3.weight f4 [1, 5]
0	0x3f5d6843	0.86487216
1	0xbf60786d	-0.87683755
2	0x3f480e2e	0.78146636
3	0x3f0dd5d3	0.55404395
4	0x3f66bdf2	0.90133584
