game-tree+NN-based-AI/model4.pth (torch, 64929 bytes, 5 tensors)

1.weight f4 [120, 16]
00000000: 82a3 e2bb e532 7cbe 3da8 fa3b 288c 86bd
00000010: a3cb 53be 4ff3 20be 6fc7 303d a6c0 fa3d
00000020: fcc5 05be 45f1 213b 5a17 18be 60bb 263d
00000030: e1e3 3e3e dad5 5ebd 18be 0ebe 0fe6 a0bc
00000040: 5955 2cbd 242a d2bd 2664 46be 6fcb 81bd
00000050: 0e4c 52be c89a 3c3e 39cf 49bd e6be 543d
00000060: c18d 45bd 631f 75be 3f0b e0bd 2b56 69be
00000070: 5639 f8bd a4c2 35be 48a0 7ebe 9788 513e
00000080: 7657 19be a7cb 873e 0685 423d 9982 743e
00000090: e353 523e c289 6e3d 0c17 a13e 31ef 553e
000000a0: 722e a73c 92bc b83d d541 a23d 0523 11bd
000000b0: e08b 553e a5da 3c3e 68b9 febd fc17 88be
000000c0: 7581 a53d ab50 913e 3173 dcbd 73a7 4ebd
000000d0: a0e1 d73d 9a3e e43d 0f6c aa3c b124 3b3e
000000e0: 592a a6bd 7f6e 863e 7cd6 773e 48b8 a13e
000000f0: fc26 5cbe 3595 243e c654 3f3e 524d 043e
00000100: 4b0e 053d 6f71 3e3e 9049 68be 77e7 fabd
00000110: f07e 163c ce8e 67bd b305 b83c c606 71be
00000120: bb2c 593e 18f9 4b3e 3d06 e3bd 4bfb 12bd
00000130: c780 0bbe d103 88be 943a 5e3d 4b83 59be
00000140: 93bd a7bd c2a8 bdbd 253e 75bd 839e 05be
00000150: 4035 843d a612 9e3d c3d6 933c 807e ed3d
00000160: 552b 95bd 7828 efbd 49e7 773d 93ac 463d
00000170: 50b7 a4bc 59cb 94be 2e7f c5bd f8ca 803e
00000180: a554 ddbd 4567 273e 02e4 723e 0cc6 8b3e
00000190: 7d1b 783e a7cd 8a3e 27fe 94bd ca4c b3bc
000001a0: 091e 853e 6b12 41bd 1748 383d a2bb e23d
000001b0: c501 033e 51e7 8fbd 6883 ea3d 0187 1abe
000001c0: 5e7e 543e 897e 093d e1ff d0bd 4986 873e
000001d0: 774d 99bb 5b2f 253e 13bc 4fbc 0115 d73d
000001e0: 1670 efbd 1dd0 89bc 22d4 823e a62e 133e
000001f0: 67be 3f3e b907 8a3e ece5 85bd 1cd8 bdbd
00000200: 39f1 6fbe 73b5 b03b 8674 8abd 93da 21bd
00000210: c46a a3bd c78f 96be 6429 08be 9822 673d
00000220: b6a1 6ebe 9f83 063e 93a9 8cbe 6da4 bdbd
00000230: 70bf 433e f0db 67be d635 b1bd d4ff 833c
00000240: 192c 593e ff2e 563e f18a 413e 568f 4f3d
00000250: 8e1a 973e b522 a63b 3fa9 be3d c059 b43d
00000260: 7a07 853d 7f3d 26be 5b04 2cbe ef69 883d
00000270: 002a f7bd 32b2 593e 9343 5e3e efd7 83bd
00000280: a388 bf3c ad06 313c 5137 0d3e 8868 c63d
00000290: bd2c 16bb 2277 803e 4a4c 923e 7cb6 2a3e
000002a0: cc58 903e 1cdd 273e d819 443e bdb3 4b3e
000002b0: 5c5e 04bd 57f0 103e 547a 2cbe f2f6 71be
000002c0: 7127 573e 0947 363d 7fa7 74bd e198 6e3d
000002d0: 6ed3 dbba deaa 9e3c cc98 e63d b04d edbd
000002e0: a62a 34be c23d 8e3e c115 443e 0ac9 d8bd
000002f0: 6cff 9d3d 98b4 813e 06f1 573e 9d47 023e
00000300: 9b74 c33d 891a 5a3d cc20 1a3e 2d9e b93d
00000310: c966 883c 1e35 22be 921e cf3d 67cb 10be
00000320: 1bb8 e83d 8408 9a3e 8811 8e3e 2d39 133e
00000330: d5e3 243e b031 183e 1ae1 953e 779d c7bd
00000340: 0ada 09be e8ad 6c3c 4864 20be eb5b a3bd
00000350: 503b 99be 910b 29be baa7 38be a370 84bc
00000360: ec0b 92be a679 073e fd77 36be 9e0c 6bbe
00000370: 58a1 9e3d 8e1d 153e 6dd4 8cbe 981a ef3d
00000380: 6129 43bd c979 5a3e d8d9 133e 54d9 46bd
00000390: 9bac 95bd db1f 5c3e 1a77 763e b743 2abe
000003a0: 6b5c 7f3e 417a e7bd d29d f7bd 5655 45bd
000003b0: 6146 113d 4606 243e 24b2 6d3c 3095 10be
000003c0: 8207 34be 026c e4bd 40cd 093c d4fa 8ebe
000003d0: 3266 173d 4bbe c03d a6b2 c43d 6477 80be
000003e0: c430 96be 7537 14be 4a21 6dbe 310c 2e3e
000003f0: 3053 84be 1f8e 22be 8196 ba3d 4e38 f93d
-0.0069164643 -0.2462879 0.00764945 -0.065697014 -0.2068315 -0.15717815 0.043158945 0.12243776
-0.13063806 0.0024710458 -0.14852658 0.04070604 0.18641616 -0.054403163 -0.13939703 -0.01964095
-0.04207358 -0.10261944 -0.19374141 -0.0633763 -0.20536825 0.1841842 -0.04926989 0.051939867
-0.04823089 -0.23937754 -0.10939645 -0.22786777 -0.12120311 -0.17750031 -0.2486583 0.20462261
-0.1497477 0.26522562 0.047490142 0.23877944 0.20539813 0.058236845 0.31462896 0.20892026
0.020407889 0.09020342 0.07922713 -0.035433788 0.2085414 0.18442781 -0.12437707 -0.265808
0.080813326 0.28381857 -0.107641585 -0.05045266 0.105410814 0.11144753 0.02080348 0.18275715
-0.08113546 0.26256177 0.24202913 0.31585908 -0.21499246 0.16072543 0.18684682 0.1292012
0.032484334 0.18597959 -0.22684312 -0.1225118 0.009185538 -0.056532674 0.022463655 -0.2353774
0.2120847 0.1991924 -0.11085174 -0.035884183 -0.13623343 -0.26565412 0.054255083 -0.2124149
-0.08190455 -0.092607036 -0.05987372 -0.13048749 0.06455469 0.07718401 0.018046742 0.115963936
-0.072836556 -0.11677641 0.060523305 0.048504423 -0.020106941 -0.29061392 -0.09643398 0.25154853
-0.1080716 0.16347988 0.2371979 0.27299535 0.24229236 0.27110025 -0.07275038 -0.021887202
0.25999478 -0.047136705 0.044990625 0.11070944 0.12793644 -0.07026542 0.11450845 -0.15090562
0.2075133 0.03356794 -0.10205055 0.2646964 -0.004678424 0.16131346 -0.012679118 0.10502053
-0.116913006 -0.016822869 0.2555247 0.14373264 0.18724976 0.26959017 -0.06537995 -0.09269735
-0.23431863 0.005392724 -0.06760506 -0.03951509 -0.07979348 -0.29406568 -0.1329704 0.056429476
-0.23303875 0.13136147 -0.27473125 -0.09259877 0.19115996 -0.22642493 -0.086528465 0.0161132
0.21208228 0.20916365 0.18900658 0.050673805 0.29512447 0.0050700554 0.09309625 0.08806181
0.06495567 -0.16234396 -0.16798536 0.0666083 -0.12068558 0.21259382 0.21705465 -0.064376704
0.023380583 0.010804814 0.13790633 0.096879065 -0.002291485 0.2509089 0.2857383 0.16671175
0.28192747 0.1639294 0.19150484 0.19892783 -0.03231655 0.14154182 -0.1684354 -0.23629358
0.2101114 0.04450134 -0.05973005 0.058251265 -0.0016771385 0.019368585 0.112596124 -0.11587083
-0.17594394 0.27781492 0.19148923 -0.1058522 0.077147335 0.25333095 0.21088037 0.12722631
0.09543725 0.053247962 0.15051574 0.09063373 0.016650574 -0.15840575 0.10113253 -0.14140092
0.1136324 0.30084622 0.2774775 0.1437728 0.16102536 0.14862704 0.292733 -0.09746831
-0.13462082 0.014445759 -0.15663254 -0.07976516 -0.29928064 -0.16508318 -0.18032733 -0.01616699
-0.2852472 0.13229999 -0.1781921 -0.22954032 0.07745618 0.14562055 -0.27505818 0.11674994
-0.047646884 0.2133552 0.1443857 -0.048547104 -0.073083125 0.21496527 0.24068871 -0.16627394
0.24937598 -0.11302615 -0.12090649 -0.048177086 0.03546751 0.16018018 0.014507804 -0.1411941
-0.17580989 -0.11153413 0.008410752 -0.27925742 0.036962695 0.094112955 0.09604387 -0.25091088
-0.2933408 -0.1447428 -0.2315723 0.16996838 -0.25844717 -0.15874527 0.091107376 0.121689424

2.weight f4 [80, 120]
00000000: ebc4 ac3d c3fc a0bc 1b74 67bd fb23 58bc
00000010: 12ad de3d e033 27bc 2701 80bd 63cd 943c
00000020: 637c b4bc de2c 9ebd 3233 07be 17d7 b0bd
00000030: 741a fabd 8a1e 09bd d032 b73a c6df 5a3d
00000040: 3c27 5cbc 619b 07be 5ff6 1fbd baa7 17bc
00000050: f52c a13c 5e66 c73d 1bae 033d c7a8 b8bc
00000060: 5a19 f3bb db4c 25bc 823c 9a3b 1342 ba3d
00000070: 8d20 f63c 707f eb3c 6563 523c 8ab4 263c
00000080: 8e56 653d 9e2e 973d c20e 923c 7e69 cabd
00000090: d8e5 353d a6ca a4bd 8c9d 323c d628 ecbd
000000a0: 9b92 d5bc 5730 85bd 2c8f 5a3d c346 68bc
000000b0: e417 d63b b6c0 23bd e58e 82bc 7a78 9cbd
000000c0: d400 96bc 79fd df3d ab92 90bd a560 6e3c
000000d0: bcbf fbbc 7161 623d 42b9 d83d 6cbc 843d
000000e0: dd5a 06be 0961 a73d de48 16be 3058 193d
000000f0: 247a 803d 40c9 8abd 76a0 9abd 8a17 d13c
00000100: a07a 7dbc 072d 1ebe 7485 61bd 8f9f d0bd
00000110: 0af6 73bd f220 d4bd 4905 01bd 62b2 0abe
00000120: 9c69 f9bd 9d1c 2e3d ff67 4c3d 1c0b 5dbd
00000130: 75c9 d53c 9283 67bd 240a 84bc 380e 0cbc
00000140: 342d 0c3e 55d1 60bd 5964 9d3d 37ea dfbc
00000150: 5008 ee3b a455 bb3d ebbb b93d 841f eabd
00000160: 7f8b cfbc 0154 983d 251e 3a3d d05e a53d
00000170: 5342 063a 8084 48bd deb1 86bd 8d31 173c
00000180: 1fd3 0fbd a17f 8abd d63a e33c 458c fbbc
00000190: 3c61 483d e45b 363d d040 b63c 34da dc3d
000001a0: a17a e0bd 9c17 15bd a734 973c 0e3d fdbd
000001b0: 1b89 09be 8826 143d acc6 9fbd 31eb 603c
000001c0: cfe5 d33d a109 e83c 3f29 e1bc c768 1f3c
000001d0: c205 e6bd 0740 4f3a e6f4 033d dd7b 52bd
000001e0: 5826 d83d a8d7 d7bc 994c b8bd f214 36bc
000001f0: 8265 7a3b fbd7 a4bc 5a94 373a 240d 94bd
00000200: ad38 9b3d a011 443c 2418 0e3c cef1 a8bd
00000210: ae26 82bd 7e40 533c fde2 91bd 54d5 b03d
00000220: 1d46 f23c c597 49bc 81cf 553c fc39 193d
00000230: 7ab9 ddbd cd2b f33c 4cb4 623d b6f9 393d
00000240: 0aed 03be 47b7 933d b8a2 d3bc 5163 a53d
00000250: afc2 6bbd 2514 823c c315 863d 4ad6 89bd
00000260: 8d8b 003d 986e 323d 0505 57bd bcdf 97bd
00000270: 588a 57bd 943d 053c af9e 60bd 2813 e1bc
00000280: 1d6d 15bd aa47 bbbd 1b37 a33d b450 ca3c
00000290: 481b 2e3d 68ec cc3d bc28 79bb 5c02 29bd
000002a0: 829d c1bc 9dd4 ff3d e3f1 92bd 1eaf da3d
000002b0: 447f d73d 83e9 213d e46c b7bc dfe9 613d
000002c0: d5f7 a0bd 806d f43d d309 ed3a 9d27 24bd
000002d0: 72ec 1e3d 66b4 083d 1510 acbd 4da8 713d
000002e0: 6d72 abbd cac7 743c ee76 853c da8f c0bc
000002f0: a1b8 b9bd a96f d1bd 142e b7bd 0255 f9bc
00000300: 5ba2 85bd c10c 083d 35ba 51bd ca08 68bd
00000310: d2ca 6a3c 8872 70bd 2155 0f3d 315f dd3d
00000320: 7acc 053e bfcd c7bd 4ab0 593c d4a2 b1bd
00000330: c8c8 0bbe 8845 e1bc a383 153e 78e8 2c3d
00000340: 44bf 2cbc 8d41 7c3c bbf2 a13d 1528 273d
00000350: 3290 cfba 5036 46bd 2cc5 82bb ef1e 67bd
00000360: 6bfd 8cbd dfab 893c aeb6 9abb 90bb 2c3d
00000370: 11ca 27bd 7f69 963c 8cee c1ba b674 653d
00000380: ff84 febc 0217 30bc 1221 8bbd ae79 b2bc
00000390: 003a 44bd 9403 db3c 813e 483d 50bf 033e
000003a0: be83 a33d 29fc a4bd f3d0 abbc 7b1d 033d
000003b0: 2164 ccbd ed99 903d 8035 083d 8af0 d0bd
000003c0: 4fab 8b3d 6410 563c cebe cabd dd96 c3bd
000003d0: d28a 263d 0c55 9d3d c107 943c aca4 fdbd
000003e0: 83db ee3d 4659 463d 78d7 0b3c 03dc c6bd
000003f0: 0d93 9cbd 4fdc db3d 40da 753d 6d71 e0bc
0.084359966 -0.019651776 -0.05650721 -0.013192172 0.10872854 -0.010205239 -0.0625022 0.018164342
-0.022031968 -0.077234015 -0.13203123 -0.08634775 -0.12212077 -0.03347639 0.0013976935 0.053436063
-0.013437089 -0.13242866 -0.039053317 -0.009256298 0.019674757 0.09736322 0.03214846 -0.022541417
-0.0074187936 -0.010089125 0.00470692 0.09094634 0.030044818 0.02874729 0.01284108 0.01017488
0.055990748 0.073819384 0.017829303 -0.09883402 0.04440865 -0.080464646 0.01090182 -0.11531226
-0.026070883 -0.06503361 0.053359196 -0.014177027 0.0065336097 -0.039978705 -0.015937278 -0.076401666
-0.018310942 0.10937018 -0.07059225 0.014549409 -0.030731075 0.05526871 0.1058221 0.06481251
-0.13120599 0.08172805 -0.14676234 0.037437618 0.062732965 -0.06776667 -0.07550137 0.02552392
-0.015471131 -0.15446864 -0.05505891 -0.101866834 -0.059560813 -0.10357846 -0.03149918 -0.1354461
-0.121783465 0.042507757 0.049903866 -0.053965673 0.026097039 -0.05652196 -0.016118117 -0.008548312
0.13689119 -0.054887135 0.076851554 -0.027333362 0.0072641745 0.09147194 0.09069046 -0.114317924
-0.025335072 0.074378975 0.045438904 0.08074725 0.00051215774 -0.048954487 -0.06576894 0.009228122
-0.03511345 -0.067626245 0.027738016 -0.030706534 0.048920855 0.044521227 0.022247702 0.107838064
-0.109608896 -0.03639947 0.018457724 -0.12365161 -0.13431208 0.03616956 -0.078015655 0.013727949
0.10346567 0.028324904 -0.027485488 0.009729571 -0.11231567 0.0007905964 0.032215975 -0.051387656
0.105541885 -0.02634795 -0.08998985 -0.011113392 0.0038207476 -0.020122519 0.0007003002 -0.07229069
0.075791694 0.011967093 0.008672748 -0.082492456 -0.06355034 0.012893794 -0.07123373 0.08634439
0.029574448 -0.012304251 0.013049961 0.037408814 -0.108263925 0.029683972 0.055347726 0.04540416
-0.12883392 0.07212692 -0.025834426 0.08075584 -0.05755871 0.015878746 0.065471195 -0.067303255
0.031383086 0.0435625 -0.05249502 -0.07415721 -0.05262217 0.008132357 -0.054838832 -0.027474955
-0.03648101 -0.09144528 0.07969495 0.024696685 0.042506486 0.100060284 -0.0038018664 -0.041262016
-0.023634676 0.12491725 -0.071750425 0.10677932 0.10522321 0.039529335 -0.02239079 0.055154677
-0.0785977 0.11934948 0.0018084593 -0.04007684 0.03879971 0.033375166 -0.08401505 0.058998395
-0.08371434 0.014940212 0.016292062 -0.023506094 -0.09068418 -0.102263756 -0.089443356 -0.030436043
-0.065251075 0.033215288 -0.05120297 -0.056649007 0.014330583 -0.058702976 0.034993295 0.10809172
0.13066283 -0.0975604 0.0132866595 -0.08673635 -0.1365081 -0.027498975 0.14600997 0.042213887
-0.010543648 0.015396488 0.07907625 0.04080971 -0.001583582 -0.04839164 -0.00399079 -0.056425985
-0.06884273 0.016805587 -0.004721484 0.04217106 -0.04096419 0.018360851 -0.0014795824 0.056019507
-0.031069277 -0.010747673 -0.06793417 -0.021786537 -0.047906876 0.026735105 0.048887733 0.12865949
0.07984112 -0.08055908 -0.020973658 0.032010537 -0.099800356 0.07060609 0.033254147 -0.10202129
0.06819784 0.013065431 -0.09899674 -0.09550259 0.040659733 0.07682237 0.018070104 -0.12384924
0.11662962 0.04842498 0.0085352585 -0.09709933 -0.07645235 0.1073538 0.060022593 -0.027397836

3.weight f4 [40, 80]
00000000: 39d9 c53d 4494 5abc 48af 023e a64c 9bbb
00000010: 8168 b93d 8fc5 38bd 0a57 0cbd 0a6e b5bc
00000020: 8691 bf3c 4fa4 22bc d562 dfbc cd81 a8bd
00000030: 92a9 7dbd 8052 c1bd 6183 603d fd8c babd
00000040: 041a f93d 685c 8f3d 8909 df3d 241a 85bd
00000050: 3b53 903c 8c58 10be c970 243e a053 84bd
00000060: 866f 56bc fcf8 6a3d e207 96bc 8729 abbc
00000070: a491 bf3d 8ba9 aa3d d865 cd3c dd72 93bd
00000080: 801f f0bd 7774 eb3d 2b39 233b 9ef9 37bd
00000090: ec3f 02be 9bc7 65bd 61fb 85bd 379a a4bd
000000a0: 5bc1 453c 52ba 953c 2e10 243d 679b fdbb
000000b0: ec15 603d 2e35 593b 0611 f03c 4579 2c3d
000000c0: 6934 81bc 58a2 2a3d fa21 103d 2444 86bd
000000d0: 44d1 313d 35ed fd3d 0f9b b13d b098 13be
000000e0: 7952 a93d 5a91 b23d e802 c63d d0a7 5bbd
000000f0: f235 b43d 27eb 0dbd cf0d 843b 7ac9 b7bc
00000100: acef 78bc 0a9d f5bd 5793 203e 6409 9f39
00000110: 3b5d 77bd 1496 5cbd e4d1 063e f123 053d
00000120: bb2d ed3d 8c25 0dbd fb25 ae3d c9d1 76bd
00000130: bfb7 0e3d 47f1 dc3d bce6 3fbd ae20 203d
00000140: 4b33 b6bd 5362 45bd e2c7 bdbc c856 bebd
00000150: a69e c1bd d634 ae3d 676c 603d da4f 7e3d
00000160: cfc8 4f3b 7514 a8bd 350a b43d be02 123e
00000170: 22e1 293c 651a f13c aece 5cbd 8ef3 193d
00000180: 4ca9 b0bd be28 36bc f33c 033a 6fda 41bd
00000190: 24c8 303d 614b 333d db79 ef3c e078 cebd
000001a0: 7513 ea3c fcd1 8abd 9771 313d 643f d03c
000001b0: 821f dcbd a344 99bd 02a0 003e 052a a1bd
000001c0: a9d0 9c3d bbd4 a23c 6ffd 893c aab5 253b
000001d0: 3824 a1bd 3c4b acbb 2528 7d3c 9af6 ef3c
000001e0: 1f45 88bd 478a 9f3d f71b d4bb 5355 fabc
000001f0: 724c 87bd d5e0 44bd fc23 3cbd e054 2ebd
00000200: 9319 e63c e211 c0bc 7a2f c0bd e8af 003e
00000210: 2068 8e3d 97b4 f43b b276 f23d 498c 8e3d
00000220: b193 b2bd 3214 efbd 5e36 9abc 898f c3bd
00000230: 4bd4 8fbd a2a5 943d f353 5dbd f4dd 63bc
00000240: d237 00bd 62ea a4bb ff37 b63d cd80 47bd
00000250: 67db 423c 6401 713d 9e79 8b3d 42cb 91bd
00000260: e9ea 233c aa6b 323d 0843 7cbc 772d b63c
00000270: 2f4a 663d c241 9d3c 7347 bebd f66e 323d
00000280: 92e2 8ebb 1847 08be dfbd 1abd f94b 593d
00000290: 36a6 7ebd c388 51bd 1dac efbc 7041 fcbc
000002a0: bb92 fdbc 00e8 cd3a da7c d23c 0312 3e3d
000002b0: 1b26 febd 0d44 fc3d 6441 6ebb 5e5d a4bc
000002c0: 8323 11be 588a 183d 9f9b fcbd 97cf 6fbd
000002d0: b80e 513c 1181 9a3d b699 41bb 2808 a23d
000002e0: 9cae bf3d cd7b 02be 04c7 193d e9e9 c7bd
000002f0: c5a0 bf3c de9e 673d e957 003d a479 c63c
00000300: 2790 9abd 19e3 b9bd 8149 753d ccae d33d
00000310: d6a2 95bd 2f25 cd3b 84dd 25bd 4779 933d
00000320: cb03 27bc 8c8c bc3c c75a f0bd 412b 36bc
00000330: 2901 4cbd 7dbd 593d 0a9a 72bd 00ed 043e
00000340: d594 063e c53d 073e 5d5e f1bb b398 b23d
00000350: 6020 c2bd 94c1 febd 155b 60bd b41f 5bbd
00000360: c6e2 0abe 1221 7b3c efab 933d 2397 ecbd
00000370: fab7 94bd c129 c73d 7813 17bc 214a 573d
00000380: c2d7 5f3d 3940 3fbc 486e d1bd 95c2 9f3d
00000390: 69b1 0d3e fec0 66bc 79d0 d0bd 72e6 80bd
000003a0: ec1a afbd b48c 853d 2ed4 a5bd 7b66 9bbc
000003b0: 3e27 143e cfd7 a0bd 6f9b b43c 8372 10bd
000003c0: b8c9 a43d dd49 dc3d 2cc3 e93d 77d2 f63d
000003d0: 58af a63b 66f0 e63d 1c73 03be 3bef eebd
000003e0: ddf9 b53c 14b5 bb3d 8d90 b3bd a9f6 6f3d
000003f0: 3ad7 003e 0e5d 1abe fe04 063e 8b41 a2bd
0.096605726 -0.013341013 0.12762177 -0.004739362 0.09053136 -0.04511028 -0.034262694 -0.022147197
0.02338482 -0.0099268695 -0.027268806 -0.082278825 -0.061929293 -0.09439564 0.054812793 -0.09108923
0.12163165 0.07000047 0.108904906 -0.064991266 0.017617812 -0.14096278 0.16058649 -0.06461263
-0.013088113 0.057366356 -0.018314306 -0.020893825 0.093539506 0.08333119 0.025072977 -0.07199643
-0.11724758 0.11496823 0.00249059 -0.044915788 -0.12719697 -0.05609856 -0.06542087 -0.08037227
0.012070025 0.018277321 0.040054493 -0.0077394727 0.054708406 0.003314327 0.029304992 0.04210784
-0.015772061 0.04165873 0.035188653 -0.065559655 0.043412462 0.12398759 0.08672153 -0.14413714
0.082676835 0.0871913 0.09668523 -0.053626835 0.08799352 -0.034648087 0.0040299664 -0.022434939
-0.015193861 -0.119928434 0.15681206 0.0003033384 -0.060391646 -0.053854063 0.13166004 0.03250498
0.11580988 -0.034459636 0.08503338 -0.06025866 0.034843203 0.107882075 -0.046850905 0.039093666
-0.08896502 -0.048189472 -0.0231666 -0.09293896 -0.09454088 0.085061714 0.05479088 0.06208787
0.0031705385 -0.08207027 0.08791009 0.14258859 0.010368617 0.029431531 -0.053908043 0.037585787
-0.08626041 -0.011118112 0.00050063356 -0.047327455 0.04315962 0.04377306 0.02923291 -0.10081649
0.028573731 -0.067783326 0.04332122 0.025420852 -0.10748197 -0.074837945 0.12561038 -0.07869343
0.07656986 0.019876828 0.01684448 0.0025285282 -0.07868236 -0.005257992 0.015451466 0.029292393
-0.06653809 0.07790046 -0.00647306 -0.030558264 -0.06606378 -0.04806598 -0.045932755 -0.04256141
0.028088367 -0.023446027 -0.093840554 0.12567103 0.06953454 0.007467817 0.118390456 0.06960351
-0.08719576 -0.11673774 -0.018824752 -0.095488615 -0.070229135 0.072581545 -0.05403514 -0.013907898
-0.031303234 -0.0050328234 0.08897399 -0.04870682 0.01189313 0.058839217 0.06810306 -0.071188465
0.010004737 0.043559708 -0.015396841 0.022238476 0.05622309 0.019196395 -0.092909716 0.04356285
-0.0043605054 -0.1330837 -0.03777873 0.05305097 -0.06217023 -0.051155817 -0.029256875 -0.030792922
-0.030953756 0.00157094 0.0256943 0.046403896 -0.12409612 0.12317667 -0.0036354894 -0.020064052
-0.14173703 0.03724131 -0.1233437 -0.058547582 0.012759857 0.07544149 -0.0029541082 0.07911712
0.09359476 -0.12742539 0.03754331 -0.09761412 0.02339209 0.056547992 0.031333838 0.024227925
-0.07547026 -0.090765186 0.059884552 0.10336074 -0.07306449 0.006260536 -0.040494457 0.07200866
-0.010193775 0.023016237 -0.117360644 -0.011118711 -0.049805794 0.053159226 -0.059228934 0.12981033
0.13142712 0.13207157 -0.0073659853 0.08720531 -0.09478831 -0.12439266 -0.054774363 -0.05349703
-0.1356307 0.015327709 0.07210528 -0.115522645 -0.07261653 0.09724761 -0.00922095 0.05256093
0.054649122 -0.011673027 -0.102261126 0.078007855 0.13837208 -0.014084099 -0.10196013 -0.06293954
-0.08550057 0.065209776 -0.08097111 -0.018969765 0.14468095 -0.07853662 0.022046773 -0.035265457
0.08046287 0.10756276 0.11414179 0.12051862 0.0050868206 0.11276321 -0.1283688 -0.11666723
0.02221387 0.09165397 -0.08767805 0.058584843 0.12582102 -0.1507456 0.13087842 -0.079226576

4.weight f4 [20, 40]
00000000: 5565 15be a41d 163e c182 2a3e 7e66 203c
00000010: c047 16be 6c87 c2bd 7c91 a53d d69b 493e
00000020: 2e87 41be 1b4a 42be e52f 8fbc 1ed3 b63c
00000030: e660 d3bd 801e 103c 1739 8fbd 0e6d 863d
00000040: 8d52 8cbd 736e 96bc a767 4fbe 15f3 c13d
00000050: 0eb9 563d c90a 72bd 6c23 31bd 714f 673d
00000060: b19c dcbd 3186 c13d 2f3a 503e dc83 b4bd
00000070: 1080 2d3d f26b e4bd 1a93 49be d0ee 383d
00000080: 9fee 2a3e 084c 323e 2299 9ebd 6d24 cc3c
00000090: cc0f 53bd 14f3 093e aea5 2dbe f508 2d3e
000000a0: 1c28 b7bd dcc7 79bd c483 10bb e6e9 2d3d
000000b0: 31ec 093e 37f2 263c 7e7f 3dbe e77e 26bd
000000c0: 5276 ee3b 7a2d 423e 65a3 4cbe feb1 b03b
000000d0: c02e 153e 775b 4bbe f40d a33c 98b1 19be
000000e0: 79a9 c83d 4648 a939 37af 2c3e 9ed2 2c3e
000000f0: fcfd 3f3e c0a5 733d 3bb5 0ebd ec21 a73d
00000100: d5aa 943d c1ac f8bd 5e85 643d 3368 023e
00000110: 4031 71bd 685a 95bd f27d c23d b162 51be
00000120: 59bb 4abe bf0a 14be afbf e33c a171 293c
00000130: f8e6 00bb 7074 f0bd 650b 293e 20fe 0dbc
00000140: 7fda 3bbe 23ec 393e 5949 b2bd 32aa f9bd
00000150: 928f 11be 67aa 32be 0bb9 b6bd 765b 08bd
00000160: ffca 8abd c02e d3bd 576d 9abd 14e2 953b
00000170: efd2 ddbd e139 223e 6905 4a3d ea10 22bd
00000180: dfc9 07be 681c 383e bb48 323d 4434 0fbe
00000190: 6aad f6bd d766 ad3d 0599 bebd 1bba bebd
000001a0: dd91 1d3d 6852 7fbd e8d0 393e c7d2 32be
000001b0: 60b9 db3d 9d8c 423d 3a75 d4bb 458e 5ebd
000001c0: 5da7 103e ee9f d2bc 8cd4 993d 7dd5 7cbd
000001d0: 19f7 e3bb 5ddb acbd e636 33be c6b7 e0bd
000001e0: 903c d33d 39a4 95bd 5e34 99bc 96f2 38be
000001f0: 2323 a23c b46b 03bd a932 483e d6da 263e
00000200: 9f81 23be e8e7 983d d71b 213e f006 8e3d
00000210: 9b3a 12be d0d9 5a3d 190f f2bd 0a8e de3d
00000220: d2a3 cbbd 2f3d e63b 55b7 a23d 5570 c3bc
00000230: 1c32 02be dbb0 0b3c 8de7 1ebe 71bd c3bd
00000240: 9f1c d23c dff2 1c3e 1efa 8cbb a384 4ebe
00000250: b990 623d 7c8c 17be 70c9 98bd 7fe4 ee3d
00000260: 8227 b1bd dc2b 723d add8 06be 5425 20be
00000270: d689 2abe 54e3 26bd 3b91 9cbc 4908 173e
00000280: 5a07 6d3d 173e a53d a798 b73b c41d 003d
00000290: caec 993d d141 b2bd 5457 39be cd61 84bd
000002a0: f8c8 59bd 188b 883d adff 813d 0266 483e
000002b0: d3b0 563e 7b54 9cbd b6f6 023e 1e59 14bd
000002c0: fd66 b7bd 19c1 f5bd 675b ea3d e0c6 4a3e
000002d0: 1c29 10bb 29d8 343e 0069 0cbd b027 e03d
000002e0: b7a8 76bd ddaf 2cbe c2f5 07be d42b 913d
000002f0: 3e5b 1fbe 02c4 e33d 2bbe 8e3d 70f8 babd
00000300: 1218 35bd 5bd9 36be d9b3 f13d 23ef 2f3e
00000310: 3a65 7ebd 12eb cc3d 43c6 18bc 6425 b7bc
00000320: eeef 183e f8c7 2abd c742 2abe 332a e53d
00000330: 9cf0 feba 00dd c43d 63d2 afbd 6756 44be
00000340: 5754 07bd 66c5 2f3d 9183 a43d 7938 c6bd
00000350: 0fb4 0d3d e40b 1bbc 0c18 483e 9cb6 c1bd
00000360: 1331 c03d 9597 34be 5539 b83d 0053 313e
00000370: 5a0d 2f3e f9f5 cabd a9d3 0c3e bcfa bbbd
00000380: 6e9c 193e 3849 44be dd7c 26be a4da 303d
00000390: 7595 fbbd 4f0d cdbd 1af9 863d 616d b83d
000003a0: 977a 493b baac 1dbe 7e92 8fbd 33b2 453e
000003b0: d4f1 803b 94cf f53c 4537 d03d f910 b43d
000003c0: 5eb3 553e 8136 d13d 80a6 2dbe 7d72 f1bc
000003d0: 7d22 d43d 5e7c 4e3e c7d5 e9bd 81a4 583d
000003e0: 7f97 143e cd58 373e c79d 70bd 437a 263e
000003f0: a464 fc3d 2164 d13d 5c45 87bd 152e fc3c
-0.14589436 0.14659745 0.16651441 0.009790061 -0.14675808 -0.09498486 0.080843896 0.19688353
-0.18899223 -0.18973581 -0.017478893 0.022317465 -0.10321216 0.008796334 -0.06993311 0.06563769
-0.06851683 -0.018363213 -0.20254384 0.09470192 0.052422576 -0.059092317 -0.04324667 0.056472246
-0.10772074 0.09449423 0.20334695 -0.08814213 0.042358458 -0.111534014 -0.19685021 0.045149624
0.16692589 0.17411816 -0.077440515 0.024919713 -0.051528737 0.13471633 -0.16957733 0.16897948
-0.08943197 -0.060981616 -0.0022051195 0.04245939 0.13469006 0.010189584 -0.18505666 -0.040648367
0.0072772885 0.1896266 -0.19984205 0.005392312 0.14568615 -0.1985911 0.019904114 -0.15009153
0.09797949 0.0003228804 0.16863714 0.16877219 0.18749231 0.059484243 -0.034840804 0.08160767
0.07259146 -0.12142325 0.05579125 0.12735061 -0.05888486 -0.07292634 0.094966784 -0.20447804
-0.1979803 -0.14457224 0.027801363 0.010342033 -0.0019668918 -0.11740959 0.16508253 -0.008666545
-0.18345068 0.18156485 -0.08705396 -0.12190665 -0.14214924 -0.17447816 -0.08922013 -0.03329035
-0.06777 -0.10311651 -0.07540386 0.0045740698 -0.10831248 0.15842392 0.049321566 -0.03956691
-0.13260601 0.17979586 0.043526392 -0.13984782 -0.12044795 0.08466881 -0.0930653 -0.093128406
0.038469184 -0.062334448 0.18146098 -0.17463218 0.10728717 0.04749738 -0.006483701 -0.054334898
0.14126344 -0.025711026 0.07511243 -0.061727036 -0.0069569466 -0.08440278 -0.17501411 -0.10972552
0.10314286 -0.073067136 -0.018701728 -0.18061289 0.019792145 -0.032085136 0.19550575 0.16294417
-0.15967415 0.074661076 0.15733276 0.06934917 -0.14280169 0.05343038 -0.11819286 0.108669356
-0.099433556 0.0070263366 0.07945124 -0.023857275 -0.12714428 0.008526052 -0.15518017 -0.095576175
0.025648413 0.15327023 -0.004302277 -0.20167784 0.0553138 -0.14799684 -0.07460296 0.11664676
-0.08650114 0.05912386 -0.13168593 -0.1563924 -0.16654143 -0.04074414 -0.01911222 0.14749254
0.05786834 0.08068483 0.0056029144 0.031278387 0.07515867 -0.0870396 -0.1809972 -0.064639665
-0.053170174 0.06667155 0.063475944 0.19570163 0.2096589 -0.07633301 0.12789425 -0.0362178
-0.0895519 -0.11999721 0.11443215 0.19802427 -0.002199716 0.17660584 -0.034279823 0.1094507
-0.060219493 -0.16863962 -0.13277343 0.07088438 -0.1556215 0.1112137 0.069698654 -0.09129417
-0.04421241 -0.17856352 0.11801881 0.17181067 -0.062108256 0.100057736 -0.009324613 -0.022356696
0.14935276 -0.04169461 -0.16627036 0.111896895 -0.0019450369 0.09612465 -0.0858505 -0.19173585
-0.033039417 0.042912863 0.08032907 -0.0967874 0.034595545 -0.009463284 0.19540423 -0.09458658
0.0938436 -0.17635949 0.0899531 0.17316818 0.17094937 -0.09910197 0.13752617 -0.09178683
0.1500108 -0.19168556 -0.16258569 0.043177262 -0.12284366 -0.10012304 0.06590481 0.09005237
0.0030743235 -0.15397921 -0.07010363 0.19306259 0.003935078 0.030006208 0.10166792 0.087923
0.20869204 0.10215474 -0.16958046 -0.029473538 0.103581406 0.2016463 -0.11417728 0.05289126
0.14510916 0.17904969 -0.05874422 0.16257577 0.12323883 0.10224176 -0.06605026 0.030783692

5.weight f4 [10, 20]
00000000: 1295 623e 6c31 83be c800 fc3d c802 b63c
00000010: 2040 78be 9cba 63bd bd10 75be 860b 143e
00000020: 6546 733e 9f41 e5bd 9256 8dbc 7474 5bbe
00000030: f0c2 2e3e c586 05be bca3 5a3e 095e 38be
00000040: e76c 3b3d 018d ecbc 7feb efbc aaf3 683d
00000050: f366 4b3e 7e20 ad3c 4dce 463e f869 333e
00000060: 161d afbd bdfd fc3d 7fc5 47be 2b56 f0bb
00000070: 726d 0e3e f3c8 c5bd 299f 783e 8863 20bb
00000080: a164 883e a933 2d3e 53ad 223e eea6 003d
00000090: 3406 c4bd f962 91bd 53eb 5e3e 8f15 92be
000000a0: 9eec 28be e3a6 60be a9e3 683e a293 a6bd
000000b0: 7c9c 6abe f26f 62be 9f48 173c a67e fc3c
000000c0: 46e7 183e ecec 5b3e b7b6 093e 009e 4bbd
000000d0: ecc6 223e 0c87 2e3e 992e f73c b4fe 173e
000000e0: c646 2a3e e874 373c e262 1f3e 791e c13d
000000f0: 547b 273d accf aebd 50d7 283e 5ba2 643e
00000100: e62c 333e cd5a a7bd 6e47 68bd 70ef 1d3d
00000110: 25a1 8ebd 00ee 02be a28b 673e 2190 81bb
00000120: ef86 4e3e 8d74 fa3d 3390 113e be01 303e
00000130: c3d7 a13d dcc1 5f3e f253 4a3e 1f9e 1ebe
00000140: 26a4 78bd ce99 5ebe 4f61 dd3c e425 0e3e
00000150: f8fe ae3d 0db8 63be 9c4e eb3c 433a d93d
00000160: 6869 bbbd 0a02 013e 4464 8c3e 0619 5f3c
00000170: 0313 c83c 3272 343e 4dc7 843e 6b98 563e
00000180: 09a7 9bbd f2cd 9e3c a1f3 2ebe b378 0ebe
00000190: 8e7e 3d3e 2d39 61bd 9e1f 783e 212b cc3d
000001a0: d91b 4cbc 7f1a 58be c983 47be 9220 eabd
000001b0: 7fdf 843e 0d06 b0bd 81df 12be 5b06 47be
000001c0: 4ac5 403d 9486 5a3e a81d 1cbe 4168 773e
000001d0: f8eb 1a3c 4627 343d e7e2 833d 1ac1 593c
000001e0: 0d0d 0a3e 1b5d 24bd 685f 40bd f340 613e
000001f0: dc2a c5bd 8886 b1bd 56ea 08be 8c3d 9d3d
00000200: 8529 0dbe 1765 7c3e 01e7 f8bd ee66 8bbb
00000210: 4304 9cbc d8f6 923d f1cf 04be b059 8e3e
00000220: 0299 f43d 88aa c53d f402 cbbc 9a7b efbc
00000230: ffee de3b 2a82 92be b687 d53a 6de3 c53d
00000240: ad1c 8e3b c4a8 ae3c 5095 09be 1b7b 8f3e
00000250: 5f97 d33b 03d9 a23d 9455 bebd 84b6 8b3d
00000260: 5c25 0abe bcfa 77bd 3a39 03bd af87 b73d
00000270: b028 0a3e faff 943e 234a 1c3d 6bbb 8bbe
00000280: 4911 8a3e 0276 01be 7812 30bd fce4 16be
00000290: fe21 3ebe a419 81be 9777 be3d 2427 023e
000002a0: 398d d73d 0093 ed3c 899f 853e f1f3 37be
000002b0: 7c45 593e be13 ccbd 04c6 eb3d 55f0 063e
000002c0: 2f83 c53a 0b00 49bd c83f d3bd 5d96 d7bd
000002d0: 4cd2 90bc ca38 12be 1d82 783e 2d91 fd3d
000002e0: 5630 d7bc 9a36 91bc 8838 dfbc f2e8 3e3e
000002f0: 3542 c0bd 4172 6f3e 750e c43d 1cd0 05bd
00000300: d776 9b3d 6d0b 1abe 6204 3e3e 72ec 5c3d
00000310: 4ac1 d23c 7cd5 4c3e 65ae 26bb 7ed9 3ebe
0.22127178 -0.25623643 0.123048365 0.022218123 -0.24243212 -0.055597886 -0.23932166 0.14457521
0.23757322 -0.11194157 -0.017253194 -0.21431142 0.1706655 -0.13039692 0.21351522 -0.18004622
0.045758154 -0.02887583 -0.029287098 0.056873 0.19863491 0.021133658 0.19414635 0.17520893
-0.085504696 0.12353084 -0.19508933 -0.007334491 0.13908938 -0.09657469 0.24279465 -0.0024473388
0.26639274 0.16914238 0.1588643 0.031409197 -0.09571496 -0.07098956 0.21769457 -0.28532073
-0.16496512 -0.21938662 0.22743095 -0.081336275 -0.22911257 -0.22113016 0.009233623 0.03082211
0.14931974 0.21477097 0.13448606 -0.049711227 0.15896195 0.17043704 0.030173587 0.14843255
0.1662856 0.011197306 0.15565065 0.0942964 0.0408891 -0.08535704 0.16488385 0.22327559
0.17497596 -0.08171616 -0.056708746 0.038558424 -0.0696433 -0.12786102 0.2261186 -0.003953949
0.2016866 0.122292615 0.14215164 0.17188165 0.079024814 0.21851295 0.19758585 -0.15490006
-0.06070342 -0.2173836 0.02702394 0.13881642 0.08544725 -0.22238179 0.028724007 0.10606816
-0.09150964 0.12598434 0.27420247 0.013616806 0.024423128 0.17621687 0.25933304 0.2095658
-0.07600219 0.019385312 -0.17085125 -0.1391323 0.18505308 -0.054986168 0.24230811 0.09969164
-0.012457811 -0.21103857 -0.19483866 -0.114319935 0.25951764 -0.08594904 -0.14343072 -0.19436018
0.04706315 0.213404 -0.15245688 0.24160863 0.009455673 0.043982767 0.064397626 0.013290668
0.13481541 -0.040127855 -0.046965986 0.21997432 -0.096273154 -0.08668238 -0.13370642 0.07677755
-0.1378537 0.24647938 -0.121534355 -0.0042542135 -0.019045 0.07175988 -0.12969948 0.278028
0.119432464 0.09651667 -0.024781682 -0.029233743 0.006803393 -0.28614932 0.0016291055 0.09662519
0.0043369145 0.021320708 -0.13435864 0.2802361 0.006457254 0.07951548 -0.092936665 0.068219215
-0.13490814 -0.060541853 -0.032036997 0.089614265 0.13492084 0.29101545 0.03815664 -0.27291426
0.26966313 -0.12642673 -0.042986363 -0.14735788 -0.18567654 -0.25214875 0.09300154 0.12710243
0.10524983 0.02900076 0.26098278 -0.1796415 0.21217912 -0.09964703 0.11512378 0.13177617
0.0015069003 -0.049072307 -0.103149 -0.105267264 -0.017678402 -0.14279476 0.24268384 0.12381206
-0.026268166 -0.017726231 -0.027248636 0.18643549 -0.09387628 0.23383428 0.0957307 -0.03266917
0.07591026 -0.15043421 0.1855636 0.05393643 0.025726933 0.20003313 -0.0025433537 -0.18637654
