game-tree+NN-based-AI/model8.pth (torch, 4523 bytes, 5 tensors)

1.weight f4 [8, 64]
0	0xbf0fecc1	-0.5622063
1	0xbf03f87a	-0.5155102
2	0xbeaf20d3	-0.3420473
3	0xbec109e4	-0.37702858
4	0xbe8e8016	-0.27832097
5	0xbeae354f	-0.34025046
6	0xbef87bb7	-0.48531887
7	0xbf1eda18	-0.62051535
8	0xbf0f341d	-0.55938894
9	0xbebaee2d	-0.3650984
10	0xbe5f7706	-0.21822748
11	0xbe9ab348	-0.30214906
12	0xbef0e6f1	-0.47051194
13	0xbf067a17	-0.52530044
14	0xbeda2027	-0.42602655
15	0xbf31a60d	-0.69394
16	0xbf030850	-0.5118456
17	0xbea38595	-0.31937853
18	0xbf0b6021	-0.54443556
19	0xbf18fa36	-0.5975679
20	0xbf07cce8	-0.5304704
21	0xbf158419	-0.5840469
22	0xbf24b06a	-0.64331686
23	0xbf4153dc	-0.75518584
24	0xbe96bf82	-0.29442984
25	0xbd9ecd9c	-0.077540606
26	0xbf4210c3	-0.75806826
27	0xbf288b54	-0.658376
28	0xbf17c9f1	-0.59292513
29	0xbf12a216	-0.57278574
30	0xbf2277c8	-0.6346402
31	0xbf438d87	-0.7638783
32	0xbea05f15	-0.31322542
33	0xbf12ab5e	-0.57292736
34	0xbf43ad36	-0.76436174
35	0xbf2d1436	-0.67608964
36	0xbf17316d	-0.5905979
37	0xbf1ba8e9	-0.6080461
38	0xbf4eab44	-0.8073008
39	0xbf1450f5	-0.5793603
40	0xbf0cbb7c	-0.5497358
41	0xbec7047d	-0.38870612
42	0xbf69afe5	-0.9128402
43	0xbf1ad035	-0.6047395
44	0xbf3d9b9c	-0.74065566
45	0xbf5560f0	-0.8335104
46	0xbf112a69	-0.5670534
47	0xbf5466c7	-0.82969326
48	0xbf04262d	-0.5162075
49	0xbe999955	-0.29999796
50	0xbee32528	-0.44364285
51	0xbf0d0ab3	-0.5509445
52	0xbf5f90ba	-0.8733021
53	0xbf3f3c09	-0.7470098
54	0xbf21aebc	-0.6315725
55	0xbf069faf	-0.5258741
56	0xbf118635	-0.5684541
57	0xbf1cecf9	-0.6129909
58	0xbf348990	-0.70522404
59	0xbf0fd16b	-0.5617892
60	0xbf40543c	-0.7512853
61	0xbf129a63	-0.57266825
62	0xbf6e373d	-0.93053037
63	0xbf2725ea	-0.6529223
64	0xbf1960a4	-0.59913087
65	0xbed81350	-0.42202234
66	0xbeca4a74	-0.39509928
67	0xbebeb540	-0.37247658
68	0xbeece851	-0.46270993
69	0xbea2b8df	-0.3178167
70	0xbf19eb71	-0.6012488
71	0xbf307b37	-0.6893801
72	0xbf0c9862	-0.5492002
73	0xbe804501	-0.25052646
74	0xbdda16d1	-0.10648883
75	0xbe567564	-0.20943218
76	0xbefe20e2	-0.49634463
77	0xbee78f29	-0.4522641
78	0xbef6263f	-0.48076054
79	0xbf666d6d	-0.9001072
80	0xbee9b837	-0.45648357
81	0xbe687186	-0.22699556
82	0xbf1dbee7	-0.6161942
83	0xbf026753	-0.5093891
84	0xbf0b48ef	-0.5440816
85	0xbf274a26	-0.65347517
86	0xbf3cd63f	-0.73764414
87	0xbf3e5201	-0.7434388
88	0xbed38b5e	-0.41317266
89	0xbe7c13b3	-0.2461689
90	0xbf0a6df5	-0.5407403
91	0xbf0fc2c2	-0.5615655
92	0xbf4c4123	-0.7978689
93	0xbf430bad	-0.7618969
94	0xbf48a38c	-0.7837455
95	0xbf4480f3	-0.7675926
96	0xbec33798	-0.38128352
97	0xbf05d2e1	-0.522749
98	0xbf4f5e61	-0.81003386
99	0xbf4cc2b7	-0.7998461
100	0xbf487705	-0.7830661
101	0xbf20382f	-0.6258573
102	0xbf4e0e7b	-0.80490845
103	0xbf0e987a	-0.5570141
104	0xbf0f12b9	-0.55887944
105	0xbed6e185	-0.41968933
106	0xbf3b7542	-0.73225796
107	0xbf1f7d3d	-0.62300473
108	0xbf3d40f4	-0.73927236
109	0xbf4f0da8	-0.8088021
110	0xbf2ca10c	-0.6743324
111	0xbf32774f	-0.697133
112	0xbf0f9e17	-0.561006
113	0xbef9489a	-0.48688203
114	0xbf0d16a3	-0.55112666
115	0xbf449cd3	-0.76801795
116	0xbf577d9a	-0.8417603
117	0xbf39537e	-0.72393024
118	0xbf55875e	-0.8340968
119	0xbf0c0416	-0.54693735
120	0xbf3a76e4	-0.7283766
121	0xbf20f39e	-0.6287173
122	0xbef7300d	-0.48278847
123	0xbf017c0c	-0.50579906
124	0xbf4bf31d	-0.79667836
125	0xbf11623d	-0.56790525
126	0xbf5b07b6	-0.8555864
127	0xbefe9c91	-0.49728826
128	0x3f034e45	0.51291305
129	0x3f19709b	0.5993745
130	0x3e947751	0.2899728
131	0x3ebb24bb	0.3655146
132	0x3eb9c212	0.36280876
133	0x3ebebb5b	0.37252316
134	0x3f1b060b	0.60556096
135	0x3f145c6f	0.5795354
136	0x3ebb7a9f	0.3661699
137	0x3e7bdb27	0.24595319
138	0x3e8cb72c	0.274835
139	0x3e6e210e	0.23254797
140	0x3eb7af24	0.3587581
141	0x3ebb4bec	0.3658136
142	0x3ef7ee2d	0.484239
143	0x3f4551d2	0.7707797
144	0x3efeb9db	0.4975117
145	0x3ec228dc	0.37921798
146	0x3f129fac	0.5727489
147	0x3ef690f6	0.4815747
148	0x3f1caadb	0.61198205
149	0x3f0ddec5	0.55418044
150	0x3f32e288	0.6987691
151	0x3f34eb10	0.70671177
152	0x3eb4f89b	0.3534592
153	0x3dc90076	0.09814541
154	0x3f020194	0.5078366
155	0x3f26d0e9	0.6516252
156	0x3f185980	0.59511566
157	0x3f2ba75f	0.67052263
158	0x3f1867ec	0.5953357
159	0x3f449af6	0.7679895
160	0x3e813897	0.25238487
161	0x3f093ced	0.5360859
162	0x3f36da74	0.71427083
163	0x3f22a60a	0.63534606
164	0x3f2e2a12	0.68032944
165	0x3efd161c	0.4943093
166	0x3f2f0323	0.6836416
167	0x3f25277e	0.64513385
168	0x3eb11bb6	0.34591454
169	0x3ed2aaab	0.41145834
170	0x3f69f196	0.91384256
171	0x3f47983e	0.7796668
172	0x3f298778	0.66222334
173	0x3f55ee28	0.8356652
174	0x3f2b28e4	0.6685927
175	0x3f3d25eb	0.73885983
176	0x3f107c3e	0.5643958
177	0x3ef42291	0.47682622
178	0x3f1a0b86	0.60173833
179	0x3f318230	0.69339275
180	0x3f367e53	0.71286505
181	0x3f1e11cf	0.61745924
182	0x3f39a602	0.7251893
183	0x3f386520	0.72029305
184	0x3f0ebeed	0.5576008
185	0x3f17dc6b	0.59320706
186	0x3f2d2d4f	0.6764726
187	0x3efbf9b5	0.4921395
188	0x3f216aa3	0.6305334
189	0x3f32cc61	0.6984311
190	0x3f532a25	0.8248618
191	0x3f0239a3	0.50869197
192	0x3f1ede74	0.62058187
193	0x3ecdf032	0.40222317
194	0x3ef7c183	0.48389825
195	0x3ed0ed96	0.40806264
196	0x3ee7e4c6	0.45291728
197	0x3f063023	0.524172
198	0x3f16a725	0.5884879
199	0x3f3be69d	0.7339876
200	0x3ef08740	0.46978188
201	0x3eaa069a	0.33208162
202	0x3e47e2d9	0.1952013
203	0x3eb32afc	0.34993732
204	0x3eb0cf9c	0.34533393
205	0x3eadbe51	0.33934262
206	0x3f16e369	0.5894075
207	0x3f663c76	0.89936006
208	0x3ef2a280	0.47389603
209	0x3e7655ef	0.24056219
210	0x3edb4ada	0.42830545
211	0x3f24d940	0.64394
212	0x3f0428ac	0.5162456
213	0x3efc44ee	0.4927134
214	0x3f34a2f4	0.70561147
215	0x3f2d999c	0.67812514
216	0x3ee23b66	0.44185942
217	0x3e5b26bd	0.21401496
218	0x3f0b6182	0.5444566
219	0x3f1bf89f	0.6092624
220	0x3f43e0a7	0.7651467
221	0x3f22892e	0.6349057
222	0x3f3d27e3	0.7388899
223	0x3f374aaa	0.71598303
224	0x3e9db5b7	0.308027
225	0x3eb6c4f5	0.3569714
226	0x3f4843f1	0.7822867
227	0x3f1d2ad9	0.61393505
228	0x3f2abfa3	0.66698664
229	0x3f0bd05a	0.54614794
230	0x3f540191	0.8281489
231	0x3f0ebf51	0.55760676
232	0x3f0fb66c	0.5613773
233	0x3f0f09d6	0.55874383
234	0x3f395315	0.723924
235	0x3f3138d1	0.6922732
236	0x3f3657f8	0.7122798
237	0x3f6b8843	0.92004794
238	0x3f41d4f7	0.75715584
239	0x3f58c276	0.84671724
240	0x3f0444b0	0.5166731
241	0x3ec9d0e4	0.39417183
242	0x3edd1771	0.43181947
243	0x3f489930	0.78358746
244	0x3f441b00	0.766037
245	0x3f5686cf	0.8379945
246	0x3f4fe71b	0.81212014
247	0x3f235c4d	0.63812715
248	0x3f0f5251	0.5598498
249	0x3ef2a468	0.47391057
250	0x3f187cad	0.5956524
251	0x3eee0fac	0.46496332
252	0x3f1a54c8	0.60285616
253	0x3f2ac350	0.66704273
254	0x3f501245	0.8127788
255	0x3f1653d8	0.58721685

1.bias f4 [8]
0	0xbf2ffc09	-0.6874395
1	0xbf64c538	-0.8936343
2	0x3f270c56	0.652532
3	0x3f41c4fa	0.7569119
4	0xbf30bb2c	-0.690356
5	0xbf556a37	-0.83365196
6	0x3f1d220a	0.61380064
7	0xbf41cecd	-0.7570618

2.weight f4 [4, 8]
0	0xbee7813a	-0.4521578
1	0xbf20ed00	-0.62861633
2	0x3f4b2cce	0.7936524
3	0x3f43d818	0.7650161
4	0xbf4b4f7a	-0.79418147
5	0xbf4499e3	-0.7679731
6	0x3f31bf36	0.6943239
7	0xbf0295aa	-0.5100962
8	0x3ef4d743	0.47820482
9	0x3e6192aa	0.22028604
10	0xbf353494	-0.7078335
11	0xbecb3547	-0.39689085
12	0x3f3d5016	0.73950326
13	0x3e9a3a6f	0.30122706
14	0xbf0aedff	-0.54269403
15	0x3effc0cc	0.4995178
16	0x3eeede3f	0.46653935
17	0x3f3dae34	0.7409394
18	0xbf14fef3	-0.5820152
19	0xbf0609f0	-0.52358913
20	0x3f272e26	0.6530479
21	0x3f33a4a4	0.70173097
22	0xbf3d5b83	-0.7396776
23	0x3f4df28b	0.80448216
24	0xbf4b93b4	-0.7952225
25	0xbf286c56	-0.6579031
26	0x3ee0dba3	0.4391757
27	0x3ed7b398	0.42129207
28	0xbf2220f8	-0.63331556
29	0xbea69987	-0.32539007
30	0x3f3ad2a3	0.72977656
31	0xbf53156c	-0.8245456

2.bias f4 [4]
0	0x3f5cf9a4	0.8631842
1	0xbf5bda79	-0.8588024
2	0xbf1e34af	-0.6179914
3	0x3ed9837f	0.42483136

3.weight f4 [1, 4]
0	0x3f656b2f	0.89616674
1	0xbf33f2ed	-0.7029255
2	0xbf1ed364	-0.62041306
3	0x3f60ac73	0.87763137
